ch13/lightning_logs/version_0/checkpoints/epoch=17-step=15479.ckpt (torch, 315884 bytes, 18 tensors)

model.1.weight f4 [32, 784]
0	0x3c96c056	0.01840226
1	0xbc81227a	-0.01576351
2	0xbbe2df94	-0.0069236252
3	0x3c8952ee	0.016763177
4	0xbd09b802	-0.03362275
5	0x3caf75cc	0.021418475
6	0xbbf0c1e4	-0.0073473323
7	0x3c94d80c	0.018169425
8	0x3ba2b088	0.004964892
9	0xbb8f4b70	-0.0043730065
10	0x3c224bb8	0.009905748
11	0x3ae6ede0	0.00176185
12	0xbc64151a	-0.013921047
13	0xbd277d22	-0.04089082
14	0xbb2aa5f0	-0.0026038848
15	0xbb52b720	-0.0032152608
16	0x3ba9a038	0.0051765703
17	0xb9159a00	-0.00014267117
18	0x3cffc196	0.031220239
19	0x3c361738	0.011113934
20	0xbc59e92e	-0.013300223
21	0xbcb0b3ac	-0.02157005
22	0xbbc42880	-0.0059862733
23	0xbc7c655c	-0.015405025
24	0xbc3b8218	-0.011444591
25	0x3ae02400	0.0017100573
26	0x3cae68f2	0.021290276
27	0x3c9f05f8	0.019412026
28	0xbd0f0072	-0.034912534
29	0x3cb55efc	0.022140019
30	0x3c2377c0	0.009977281
31	0x3d0ac297	0.03387698
32	0x3cc11d5a	0.023573566
33	0xbda94eed	-0.08267007
34	0xbe19640b	-0.1497957
35	0xbdffcb3c	-0.12489936
36	0xbe1abc31	-0.15110852
37	0xbe1bbcc1	-0.15208723
38	0xbd36dee0	-0.044646144
39	0xbdaa18c2	-0.083055034
40	0xbe0dd84e	-0.13852045
41	0xbe84cb6c	-0.2593645
42	0x3dd91f48	0.106016695
43	0x3dae1d3e	0.08501671
44	0xbe08e762	-0.13369516
45	0xbe2b1078	-0.16705501
46	0xbe7d1242	-0.24713996
47	0xbe08498d	-0.13309307
48	0xbe03e7b2	-0.12881353
49	0xbd72ff00	-0.05932522
50	0xbd0ca32a	-0.034335293
51	0xbc8b7e23	-0.01702792
52	0x3c9ec25c	0.019379787
53	0xbc0e3c24	-0.008681331
54	0x3d11b533	0.035573196
55	0x3cea859a	0.02862816
56	0xbadb3020	-0.0016722716
57	0xbcc34958	-0.023838684
58	0x3cb22a3a	0.02174865
59	0xbeb0ec80	-0.34555435
60	0xbede74a3	-0.43448362
61	0xbe65f91d	-0.2245831
62	0xbdcc82f6	-0.09985916
63	0xbed66407	-0.4187319
64	0xbe6bd5b2	-0.23030737
65	0xbd02a4fb	-0.03189562
66	0x3d99537d	0.07486627
67	0xbe4ffaf6	-0.20310578
68	0xbedba734	-0.42901003
69	0xbeb14178	-0.3462026
70	0x3c6d84ff	0.014497041
71	0x3ee32059	0.44360617
72	0x3ebbda07	0.3668978
73	0xbe0ebe0f	-0.13939689
74	0xbdc213f3	-0.09476461
75	0x3d8501e8	0.06494504
76	0x3df29878	0.11845487
77	0x3db82d89	0.0899306
78	0x3e376575	0.17909797
79	0x3ea0e88d	0.31427422
80	0xbdb6103b	-0.088898145
81	0xbcdcbf6e	-0.02694675
82	0x3b0e5720	0.002171941
83	0xbbc76cd4	-0.0060859714
84	0x3cabd590	0.020975858
85	0xbca97045	-0.020683417
86	0x3ead7356	0.33877057
87	0x3e1c1351	0.15241744
88	0xbecf202b	-0.4045423
89	0xbca16d71	-0.019705506
90	0x3c00c1a4	0.0078586675
91	0x3e6b0e35	0.22954638
92	0x3f0b7994	0.5448239
93	0x3e060015	0.13085969
94	0x3dd915be	0.1059985
95	0xbd04a3f9	-0.03238294
96	0x3de7dd3d	0.11321495
97	0x3c3073b2	0.010769771
98	0x3cbf3615	0.023341218
99	0x3e5180ac	0.2045924
100	0x3e79fd19	0.24412955
101	0xbc151dea	-0.00910137
102	0xbdfcd0cf	-0.123445146
103	0xbe8626fb	-0.26201615
104	0xbe8d5877	-0.27606556
105	0xbe7100c0	-0.23535442
106	0xbe4bbbea	-0.19895902
107	0xbef45629	-0.47721985
108	0xbdb29149	-0.08719117
109	0xbed58591	-0.41703466
110	0x3c8b6a9f	0.017018614
111	0x3cda89ec	0.026677094
112	0x3d0ab5d3	0.033864807
113	0x3d8b7654	0.06809679
114	0x3ee05bfa	0.43820173
115	0x3efebf6c	0.49755418
116	0x3efaccfb	0.48984513
117	0x3f01db05	0.5072482
118	0x3e006f9f	0.1254258
119	0x3e51819a	0.20459595
120	0x3eb4c11d	0.35303584
121	0x3e858a53	0.26082096
122	0x3e879d5e	0.2648725
123	0x3e1f8eeb	0.15581863
124	0x3e45f2e9	0.19330944
125	0x3df3aefd	0.11898611
126	0x3d2a20b4	0.041535094
127	0x3d1ccd58	0.03828177
128	0x3d425a41	0.047449354
129	0xbe18cb90	-0.14921403
130	0x3d34d6ac	0.04415004
131	0xbdaf3940	-0.085558414
132	0xbdb801bf	-0.08984708
133	0x3e1634bd	0.14668556
134	0x3cc9c371	0.024629327
135	0xbed5d5a4	-0.41764557
136	0xb7ea800e	-2.7954604e-05
137	0x3d9f8b37	0.07790225
138	0x3e0f4a3f	0.13993166
139	0xbd16d80d	-0.036827136
140	0xbc860ff0	-0.016365021
141	0xbb884668	-0.0041587837
142	0x3edc16a9	0.42986038
143	0x3df20d44	0.118189365
144	0x3e0e3f9d	0.13891454
145	0x3f0585b1	0.5215712
146	0x3ea39306	0.31948107
147	0x3e773e78	0.24144924
148	0x3e7f3afe	0.24924847
149	0x3e1d0f32	0.15337828
150	0x3d743d51	0.05962879
151	0x3e36e448	0.1786052
152	0x3e1c68ba	0.15274325
153	0x3e5da120	0.21643496
154	0x3e060d59	0.13091029
155	0x3dc50ad7	0.09621208
156	0x3dc74e05	0.09731678
157	0xbe23d269	-0.15998234
158	0xbc68eb38	-0.014216237
159	0x3c7bd7d6	0.0153712835
160	0xbdb1c126	-0.08679418
161	0xbeac2b6a	-0.33626872
162	0xbdc2f5d6	-0.09519546
163	0xbe8b3c8b	-0.27194628
164	0xbe2847c0	-0.1643362
165	0xbdeca4bb	-0.11554857
166	0xbe8ccf1d	-0.27501765
167	0x3bf7b563	0.007559465
168	0xbce927d3	-0.028461372
169	0x3e8f3439	0.2796953
170	0xbe776d79	-0.24162854
171	0xbd341f4e	-0.043975167
172	0x3dfe5f18	0.124204814
173	0x3eba91bc	0.36439312
174	0x3e82042e	0.25393814
175	0x3dc83ac8	0.09776837
176	0x3df4565c	0.11930534
177	0x3d931dbe	0.07183407
178	0xbddb4a04	-0.10707477
179	0x3ddeb229	0.10873825
180	0x3cbb7a8f	0.022885589
181	0x3dff01d1	0.12451518
182	0x3c721a20	0.0147767365
183	0x3dfc4a3d	0.12318847
184	0xbb6c80d8	-0.003608754
185	0xbda91946	-0.08256774
186	0xbde134ce	-0.109964
187	0xbe05b8ae	-0.13058731
188	0xbe0ba9d2	-0.13639
189	0xbdff8938	-0.12477344
190	0xbd6805e0	-0.056646228
191	0x3ccfd0eb	0.025368175
192	0xbd518ba6	-0.05115857
193	0xbd1d00cc	-0.038330838
194	0x3e685ef5	0.22692473
195	0xbe129ea9	-0.14318337
196	0x3cc61eb4	0.024184562
197	0x3f23c2c7	0.6396908
198	0xbe0551b3	-0.13019447
199	0xbcc14c1f	-0.023595868
200	0x3e774927	0.24148999
201	0x3e266383	0.16248898
202	0x3e049b9b	0.12949984
203	0x3c96b7cb	0.018398186
204	0xbd2dc73b	-0.04242633
205	0xbd91eeed	-0.071256496
206	0xbde393a0	-0.111121416
207	0x3d72ded8	0.05929455
208	0x3c8b1b7f	0.016980885
209	0xbd94d1ee	-0.072666034
210	0xbd660bad	-0.05616348
211	0xbe177fdd	-0.1479487
212	0xbe2b0f38	-0.16705024
213	0xbde57f8e	-0.1120597
214	0xbe15c8b6	-0.14627346
215	0xbe37c0cc	-0.1794464
216	0x3d9c4dcb	0.07632025
217	0x3ddb7d65	0.107172765
218	0xbda81da7	-0.08208781
219	0xbe93f7f8	-0.28900123
220	0xbd56af5d	-0.052413333
221	0x3ea6fe3a	0.32615834
222	0xbe625edd	-0.221065
223	0xbe147082	-0.14496043
224	0x3c72532f	0.01479034
225	0xbe676096	-0.22595438
226	0x3d8e6b97	0.06954115
227	0x3df51705	0.11967281
228	0x3e4b4a6f	0.19852613
229	0x3e1c543c	0.15266508
230	0x3dc53d2f	0.096308105
231	0xbe0c1824	-0.13681084
232	0xbd3dfb59	-0.046382282
233	0xbdd7ba54	-0.10533586
234	0xbd095b02	-0.033534057
235	0xbcb18a2d	-0.021672333
236	0xbe3e7e93	-0.18602972
237	0xbe6fcdec	-0.23418397
238	0xbe018d87	-0.12651645
239	0xbd8ff9c4	-0.07030061
240	0xbe423ff8	-0.18969715
241	0xbd36ef9e	-0.04466211
242	0xbd8901db	-0.06689807
243	0xbe38861e	-0.18019912
244	0xbe16fc88	-0.1474477
245	0xbd643b8f	-0.055720862
246	0x3d577ea3	0.052611005
247	0xbea073d8	-0.31338382
248	0xbe56c9cd	-0.20975418
249	0xbe2d8b73	-0.16947727
250	0xbe7292ad	-0.23688765
251	0x3e5e4963	0.21707682
252	0xbd213604	-0.039358154
253	0xbe8e09f5	-0.27741972
254	0x3e73fbd2	0.2382653
255	0x3dfcd6c2	0.12345649

model.1.bias f4 [32]
0	0xbcb888b9	-0.022526132
1	0x3dcba2c2	0.09943153
2	0xbe9b3bea	-0.30319148
3	0x3db9fa93	0.09080996
4	0x3ea87ac7	0.32906172
5	0x3e8e0527	0.27738306
6	0x3e94f1df	0.29090783
7	0xbdac1353	-0.08402123
8	0x3d366a14	0.044534758
9	0x3da213ba	0.07913919
10	0x3c69f0de	0.014278619
11	0x3e8646ee	0.2622599
12	0x3ef8ce02	0.4859467
13	0x3e8742ef	0.26418254
14	0x3e0983ef	0.13429235
15	0xbe8159bd	-0.25263777
16	0x3e45b9f9	0.19309224
17	0xbbc17a72	-0.005904489
18	0x3dd0cc5b	0.10195228
19	0x3ee3a611	0.44462636
20	0x3dc0486d	0.09388814
21	0xbcc99bed	-0.024610484
22	0x3e72d84e	0.23715326
23	0xbd2f9a35	-0.042871673
24	0xbd3e52e3	-0.046465766
25	0xbc9e59f3	-0.01933
26	0xbe9dd684	-0.30827725
27	0x3de402c4	0.1113334
28	0x3e05332d	0.13007803
29	0x3e6642ed	0.22486468
30	0x3cd766fc	0.026294224
31	0xbe05db04	-0.13071829

model.3.weight f4 [16, 32]
0	0xbe8e9c04	-0.27853405
1	0xbf92f32e	-1.1480463
2	0x3e8520a2	0.2600146
3	0x3ee7b753	0.45257053
4	0xbe202e90	-0.15642762
5	0x3d03b0da	0.03215108
6	0xbd87b5e6	-0.06626491
7	0x3d6188c7	0.05506208
8	0xbef64620	-0.48100376
9	0x3cdb8fc1	0.026801946
10	0x3d22103c	0.039566264
11	0x3e51fcf9	0.20506658
12	0x3e296dc8	0.16545784
13	0x3e056b4c	0.13029212
14	0x3d963700	0.07334709
15	0xbeac8336	-0.33693856
16	0xbd528eb4	-0.051405624
17	0x3eea3da1	0.45750144
18	0xbefdbb19	-0.49556807
19	0xbead8eaf	-0.3389792
20	0xbe3604e5	-0.17775305
21	0xbd865da3	-0.065608285
22	0xbe8c7d2b	-0.27439246
23	0xbe56e4c8	-0.2098571
24	0xbe77794e	-0.24167368
25	0xbe1433e2	-0.14472917
26	0x3df492af	0.1194204
27	0x3ec3cdbc	0.382429
28	0x3eb73543	0.35782823
29	0xbd1dbf52	-0.038512535
30	0x3e3c9458	0.18415964
31	0x3f071298	0.52762747
32	0xbf034ca0	-0.51288795
33	0xbe7d4231	-0.24732281
34	0x3ebb5026	0.36584586
35	0x3eb76ef6	0.35826844
36	0x3e96b676	0.29436082
37	0xbb169c8a	-0.0022981488
38	0xbe79e0b8	-0.2440213
39	0x3e8e3ceb	0.27780852
40	0x3e6bdee8	0.2303425
41	0xbe043c7d	-0.129137
42	0x3e17f091	0.14837863
43	0xbcb7ed39	-0.022451984
44	0x3e8929da	0.26789743
45	0x3e64b289	0.22333731
46	0x3e978ba5	0.29598728
47	0xbdf70e74	-0.120633036
48	0x3e4f1ca7	0.20225774
49	0xbdc3a4a8	-0.0955289
50	0x3f29d1df	0.6633586
51	0xbcf047f5	-0.029331187
52	0x3e7aa85b	0.24478285
53	0xbd15b510	-0.036549628
54	0xbde6d1c2	-0.11270477
55	0xbe61ccac	-0.22050732
56	0xbe9b8eb5	-0.30382314
57	0x3d4348a4	0.047676697
58	0xbf0bf2a5	-0.5466712
59	0xbd92f50e	-0.07175647
60	0x3db3ef3e	0.08785866
61	0xbec01d97	-0.37522575
62	0x3e71c2a1	0.23609401
63	0xbe07b0f3	-0.13251095
64	0x3e176e56	0.14788184
65	0xbd577a02	-0.05260659
66	0x3e124cc6	0.14287099
67	0xbe8e8e4e	-0.27842945
68	0x3eacebce	0.33773655
69	0x3ebbf310	0.3670888
70	0x3f2e9f37	0.6821169
71	0x3d81f4da	0.0634553
72	0xbe18477b	-0.14871018
73	0x3e9a42f3	0.30129203
74	0x3caedd9d	0.021345908
75	0xbd36f7d1	-0.04466993
76	0xbde1b6fb	-0.11021229
77	0x3e13f228	0.14447844
78	0x3e26ba52	0.16282013
79	0x3d540fb8	0.051772803
80	0x3e5f97d3	0.2183526
81	0x3c75ef18	0.015010618
82	0xbec6bf3c	-0.38817775
83	0x3e07a9e8	0.13248408
84	0x3e867595	0.26261583
85	0xbe88d3d2	-0.26724106
86	0xbea5994e	-0.32343525
87	0xbdf48b08	-0.119405806
88	0xbebb1ac7	-0.36543867
89	0x3d00c920	0.031441808
90	0x3f47096b	0.77748746
91	0x3eb0ee37	0.34556744
92	0x3efb2583	0.49052057
93	0x3d9bba74	0.076039225
94	0x3ea4467b	0.32085022
95	0xbe2a19ad	-0.16611357
96	0xbf07bdc9	-0.53023964
97	0x3e93df73	0.28881416
98	0x3e784502	0.24245074
99	0xbe80480b	-0.25054964
100	0x3d0a6bc6	0.033794187
101	0x3eb2b207	0.3490145
102	0xbea70ef8	-0.32628608
103	0x3de8c873	0.11366358
104	0x3ec515de	0.38493246
105	0xbed14c21	-0.40878394
106	0x3d343c19	0.044002626
107	0x3e4ee3ac	0.20204037
108	0xbe86857f	-0.26273724
109	0x3e101e16	0.14073977
110	0x3e8e36cc	0.27776182
111	0x3f3a97e2	0.72888005
112	0xbdb32972	-0.087481394
113	0x3d4aac1f	0.049480554
114	0x3f01a7b5	0.50646526
115	0x3ddf8d3a	0.10915609
116	0x3f6a108e	0.9143151
117	0x3f39a73a	0.7252079
118	0x3e8d102c	0.275514
119	0x3df6e74d	0.12055836
120	0x3edac2c6	0.42726725
121	0xbd006f08	-0.031355888
122	0x3e04a8c0	0.12954998
123	0xbe2193da	-0.15779057
124	0xbe765244	-0.2405482
125	0x3f20f013	0.62866324
126	0xbe4703a5	-0.19434984
127	0x3ee4c87e	0.44684213
128	0xbe8e572e	-0.27800888
129	0x3ed1287d	0.40851203
130	0xbc743910	-0.014906183
131	0x3e4bc032	0.19897535
132	0x3e2e94fd	0.17049022
133	0xbe3db502	-0.1852608
134	0xbecf4407	-0.40481588
135	0x3d80bba9	0.06285793
136	0xba9573cd	-0.0011402309
137	0xbf1678c7	-0.5877804
138	0x3da56146	0.08075194
139	0x3c2f949b	0.010716583
140	0x3daf3838	0.08555645
141	0x3e8d312e	0.27576584
142	0x3e02eacb	0.12784879
143	0xbed2ad4f	-0.4114785
144	0xbed7b0b0	-0.4212699
145	0xbed3a218	-0.41334605
146	0x3d26cb48	0.040721208
147	0x3e19ff91	0.15038897
148	0x3ee6d5ab	0.4508489
149	0x3eae01ec	0.3398584
150	0x3d1e6ac5	0.038676042
151	0x3f37e78c	0.7183769
152	0xbf22cd71	-0.6359473
153	0x3e23e8c1	0.16006757
154	0x3eb4449c	0.35208595
155	0x3e757b70	0.23972869
156	0x3ea6e626	0.32597464
157	0x3f02dae2	0.5111524
158	0x3ead345d	0.33829013
159	0xbdc1d405	-0.09464268
160	0x3e99d11b	0.30042347
161	0x3f155781	0.58336645
162	0x3d09e563	0.033666026
163	0x3ea3190f	0.31855056
164	0xbef54296	-0.47902364
165	0x3b654a32	0.003498685
166	0xbe83610b	-0.25659975
167	0x3e17ca84	0.14823347
168	0x3ee670b1	0.45007852
169	0xbdd37702	-0.10325433
170	0xbc943137	-0.018089874
171	0x3d58bd85	0.052915115
172	0x3ea62014	0.3244635
173	0xbe620234	-0.22071153
174	0x3d2cf928	0.0422298
175	0x3f482549	0.7818189
176	0x3ee3346b	0.4437593
177	0xbd28243a	-0.041050173
178	0x3e9ef4c9	0.3104613
179	0xbe677cde	-0.22606227
180	0xbe307909	-0.17233671
181	0x3ecab8d5	0.3959414
182	0xbd05ac12	-0.032634802
183	0x3d78376d	0.060599733
184	0xbe94311c	-0.28943717
185	0xbdaa64d3	-0.08320012
186	0xbefd1132	-0.4942718
187	0x3d7a3b95	0.061091978
188	0xbf0709e5	-0.5274947
189	0x3ef7b810	0.48382616
190	0xbeafb5b3	-0.34318313
191	0x3e733f0b	0.23754518
192	0x3e950e29	0.29112366
193	0xbea26e22	-0.3172465
194	0xbc235d7e	-0.009971021
195	0x3d78f44f	0.060779866
196	0x3df1e3b2	0.118110076
197	0x3de7c154	0.11316171
198	0x3ecd4cef	0.40097758
199	0x3e4c20bc	0.19934362
200	0xbd26e63b	-0.04074691
201	0x3f2168ca	0.6305052
202	0x3e10be01	0.1413498
203	0xbd206642	-0.03916002
204	0x3e434f03	0.1907311
205	0x3e1ae0fb	0.15124886
206	0x3d846b36	0.06465761
207	0x3e68e4d3	0.2274354
208	0x3ed77c5b	0.42087063
209	0x3e666f0a	0.22503296
210	0xbe248e92	-0.16070011
211	0xbe781ea9	-0.24230446
212	0xbf069800	-0.52575684
213	0xbe8c72cf	-0.27431342
214	0x3eeae61c	0.45878685
215	0xbed38f76	-0.4132039
216	0x3efacc06	0.48983783
217	0x3dc43a1e	0.095813975
218	0xbdea3ad9	-0.114370055
219	0x3d87328e	0.066014394
220	0x3d9b14ef	0.07572352
221	0xbf6b40af	-0.91895574
222	0x3e024e53	0.12725191
223	0xbce107b5	-0.027469495
224	0x3f32757e	0.6971053
225	0x3eb08952	0.34479767
226	0xbee87521	-0.45401862
227	0xbeb72e4e	-0.35777515
228	0xbe0be07b	-0.13659851
229	0x3e873349	0.26406315
230	0xbe40db1b	-0.18833582
231	0x3e1afd29	0.15135635
232	0xbea7fd20	-0.32810307
233	0x3d4ecdcb	0.05048923
234	0xbd900883	-0.070328735
235	0x3dac1bd1	0.08403743
236	0x3e9dbe73	0.30809364
237	0xb935dea7	-0.0001734445
238	0x3ed8c7a9	0.4233983
239	0x3ea9b778	0.33147788
240	0x3e4ccd18	0.20000112
241	0x3e62186b	0.22079627
242	0x3de307ab	0.11085447
243	0x3ead349e	0.33829206
244	0x3e51fcdd	0.20506616
245	0x3d6cffe7	0.057861235
246	0xbefeb6bc	-0.4974879
247	0xbe239369	-0.15974201
248	0xbeacc941	-0.33747295
249	0xbb2d4bd3	-0.00264429
250	0x3e216921	0.1576276
251	0x3e48d018	0.19610631
252	0x3e4733e6	0.19453391
253	0x3f6e37d2	0.93053925
254	0xbed46433	-0.41482696
255	0x3c57c224	0.013168845

model.3.bias f4 [16]
0	0x3e1b2d38	0.15153968
1	0xbe70e509	-0.2352487
2	0x3e42a314	0.19007522
3	0xbe524bf4	-0.20536786
4	0x3e901a48	0.2814505
5	0x3e701571	0.23445679
6	0x3c5d8e41	0.0135226855
7	0x3e15b141	0.14618398
8	0x3eb8c867	0.36090395
9	0x3e8d158d	0.27555504
10	0x3c42b41d	0.011883763
11	0x3ded2504	0.11579326
12	0x3e610259	0.21973552
13	0x3e556a90	0.20841432
14	0x3e34a372	0.17640474
15	0x3dba6909	0.09102065

model.5.weight f4 [10, 16]
0	0x3e768a1b	0.2407612
1	0xbe628228	-0.22119963
2	0xbeb55fe2	-0.35424715
3	0x3e43c321	0.19117405
4	0x3ec10bb5	0.37704244
5	0xbf1e0538	-0.61726713
6	0xbf1f812d	-0.6230648
7	0xbef9d601	-0.48796085
8	0xbf061252	-0.52371705
9	0xbdc35105	-0.095369376
10	0x3d713f2c	0.058898136
11	0x3f0f53e3	0.55987376
12	0x3c28e1fb	0.010307784
13	0x3e11de3f	0.14244936
14	0x3e290ea9	0.16509499
15	0x3e2748cd	0.16336365
16	0x3e9100e1	0.28320983
17	0xbf25db3d	-0.64787656
18	0xbf282049	-0.65674263
19	0x3e3dad64	0.18523175
20	0xbed47f27	-0.4150326
21	0x3f3a4d5f	0.7277431
22	0xbdf7123e	-0.12064026
23	0x3f0fb94c	0.56142116
24	0x3e19e6c9	0.15029444
25	0xbc9318eb	-0.017956218
26	0xbf0ac64c	-0.54208827
27	0x3e8e9c22	0.27853495
28	0xbd4d6a97	-0.05015048
29	0xbc14eeda	-0.00909015
30	0x3ea0b88d	0.313908
31	0xbf582f59	-0.84447247
32	0xbe8b4463	-0.27200612
33	0x3df707ff	0.12062072
34	0xbeeb7ef0	-0.45995283
35	0x3dabbcc3	0.08385613
36	0xbd971f8f	-0.07379066
37	0x3e8bda1f	0.2731485
38	0xbe7b055b	-0.24513762
39	0xbe773403	-0.24140935
40	0x3e77795f	0.24167393
41	0x3ea608c3	0.3242856
42	0xbec22ebf	-0.3792629
43	0x3d84870e	0.06471072
44	0x3ebbdd1c	0.3669213
45	0xbf232ebd	-0.6374319
46	0xbe4510db	-0.19244711
47	0x3ee3aff9	0.44470194
48	0xbe5ee660	-0.21767569
49	0x3e02eaae	0.12784836
50	0x3e2bd95d	0.16782136
51	0xbe6674bf	-0.22505473
52	0xbeb73c97	-0.35788414
53	0x3e15a8e1	0.14615203
54	0xbe201dda	-0.15636387
55	0x3e9e74fa	0.3094862
56	0xbf2a5921	-0.6654225
57	0x3e8c2ff9	0.2738035
58	0x3ea3357b	0.3187674
59	0xbf02c3ef	-0.5108022
60	0xbe940346	-0.28908747
61	0x3d8d29f7	0.0689277
62	0xbdc9c3f1	-0.09851826
63	0x3eca220c	0.394791
64	0xbea9bb06	-0.331505
65	0xbe5ec757	-0.2175573
66	0xbc9e59f1	-0.019329997
67	0xbf72143e	-0.9456214
68	0xbe4c6b23	-0.19962744
69	0x3db0b27e	0.08627795
70	0x3e825733	0.25457153
71	0xbecf15c7	-0.40446302
72	0x3e7700d3	0.24121408
73	0x3dbc4bdb	0.09194156
74	0x3e95c14e	0.29249042
75	0x3f0d44b4	0.5518296
76	0x3e88c151	0.2670999
77	0x3f07c014	0.5302746
78	0xbef33cac	-0.47507226
79	0xbf60bca2	-0.8778783
80	0xbe350164	-0.17676312
81	0xbee01ecc	-0.43773496
82	0x3edf9d95	0.43674913
83	0xbd650395	-0.05591162
84	0x3e64bea0	0.22338343
85	0xbe9e3f0a	-0.3090747
86	0xbf27e13e	-0.6557807
87	0x3e8e6382	0.27810293
88	0x3ebf8af8	0.37410712
89	0xbf3506c9	-0.7071348
90	0xbd3993fb	-0.04530714
91	0xbfa0f2ab	-1.2574056
92	0xbcfc2f02	-0.030784134
93	0x3eb36f03	0.35045633
94	0x3e059395	0.1304458
95	0x3e63797d	0.22214313
96	0xbda5dfcc	-0.080993265
97	0x3ebdf162	0.37098223
98	0xbe85b4b1	-0.2611442
99	0x3e9891af	0.29798648
100	0x3f017295	0.50565463
101	0xbdcfe49c	-0.10151026
102	0xbf3c7826	-0.7362083
103	0xbd333e48	-0.043760568
104	0x3dec6676	0.115429804
105	0xbf4cc041	-0.79980856
106	0xbe998b03	-0.2998887
107	0x3e080c22	0.13285878
108	0x3e5ea513	0.21742658
109	0x3d968394	0.07349315
110	0xbec18c55	-0.37802377
111	0xbf1b38f8	-0.606338
112	0xbf4ca9e9	-0.7994676
113	0xbec62941	-0.3870335
114	0x3e6b6232	0.22986677
115	0x3eeef1bb	0.466688
116	0xbef64a39	-0.48103502
117	0x3d88aac9	0.066732
118	0x3e8b2a06	0.271805
119	0xbf6dfc29	-0.9296289
120	0x3df83098	0.121186435
121	0x3ebe2d92	0.37144142
122	0xbf536f9a	-0.82592165
123	0x3ee6ac62	0.45053393
124	0xbf26f902	-0.65223706
125	0xbe14569e	-0.14486167
126	0x3e98fd49	0.2988074
127	0x3d8659fc	0.06560132
128	0x3eab817b	0.33497223
129	0x3eed7bfe	0.4638366
130	0xbdbf6ecb	-0.09347304
131	0x3e4696b0	0.1939342
132	0xbf0d0ab0	-0.5509443
133	0xbe3b9756	-0.18319449
134	0x3df5f8ff	0.12010383
135	0xbdfddc9b	-0.12395593
136	0x3e3c49e0	0.18387556
137	0xbf109715	-0.5648053
138	0x3f12c82b	0.5733668
139	0xbefdd178	-0.49573874
140	0x3ec295a1	0.38004783
141	0xbe4bf9f4	-0.19919568
142	0x3c2ebc4a	0.010665009
143	0xbe1aa9f9	-0.15103902
144	0x3f275bbf	0.6537437
145	0xbdfe9faa	-0.12432797
146	0x3e5dbf2e	0.2165496
147	0xbf32439d	-0.6963442
148	0xb9651d66	-0.00021850094
149	0xbf84261f	-1.0324134
150	0x3df65276	0.12027447
151	0x3e03664f	0.12831996
152	0x3deaadb3	0.11458912
153	0x3e83ee9a	0.25767976
154	0xbe1a672c	-0.1507842
155	0xbd23fbbb	-0.04003499
156	0xbe7e90cf	-0.24859928
157	0xbe3138a6	-0.17306766
158	0x3ee468ea	0.44611293
159	0xbed0a466	-0.40750426

model.5.bias f4 [10]
0	0xbe8bc22d	-0.27296582
1	0x3b856763	0.0040711625
2	0xbda765b8	-0.08173698
3	0xbdb82e4d	-0.08993206
4	0x3dc5d067	0.0965889
5	0xbaed6cde	-0.001811411
6	0xbe2abfdc	-0.16674751
7	0xbdb60487	-0.08887582
8	0xbd011a32	-0.031519122
9	0xbda5cb3a	-0.08095403

exp_avg f4 [32, 784]
0	0x00000000	0.0
1	0x00000000	0.0
2	0x00000000	0.0
3	0x00000000	0.0
4	0x00000000	0.0
5	0x00000000	0.0
6	0x00000000	0.0
7	0x00000000	0.0
8	0x00000000	0.0
9	0x00000000	0.0
10	0x00000000	0.0
11	0x00000000	0.0
12	0x00000004	6e-45
13	0x00000004	6e-45
14	0x00000000	0.0
15	0x00000000	0.0
16	0x00000000	0.0
17	0x00000000	0.0
18	0x00000000	0.0
19	0x00000000	0.0
20	0x00000000	0.0
21	0x00000000	0.0
22	0x00000000	0.0
23	0x00000000	0.0
24	0x00000000	0.0
25	0x00000000	0.0
26	0x00000000	0.0
27	0x00000000	0.0
28	0x00000000	0.0
29	0x00000000	0.0
30	0x00000000	0.0
31	0x00000000	0.0
32	0x00000000	0.0
33	0x00000004	6e-45
34	0x00000004	6e-45
35	0x000000f4	3.42e-43
36	0x2a7e44e1	2.2583629e-13
37	0x296358b1	5.0481053e-14
38	0x9e0a9d73	-7.338219e-21
39	0x80000004	-6e-45
40	0x80000004	-6e-45
41	0x00000004	6e-45
42	0x2894d8eb	1.6525374e-14
43	0x29019f05	2.878168e-14
44	0x119cb139	2.4721682e-28
45	0x1184a1e9	2.0925713e-28
46	0x00000004	6e-45
47	0x00000004	6e-45
48	0x00000004	6e-45
49	0x00000004	6e-45
50	0x00000000	0.0
51	0x00000000	0.0
52	0x00000000	0.0
53	0x00000000	0.0
54	0x00000000	0.0
55	0x00000000	0.0
56	0x00000000	0.0
57	0x00000000	0.0
58	0x00000000	0.0
59	0x10e55468	9.045462e-29
60	0x00008a87	4.9694e-41
61	0x29c2fd40	8.6592625e-14
62	0x2b06285a	4.766236e-13
63	0x2f297d41	1.541496e-10
64	0x31a570e4	4.814966e-09
65	0x3211bea6	8.483459e-09
66	0x3001c4ba	4.720949e-10
67	0xb271f778	-1.4084314e-08
68	0xb197203c	-4.398343e-09
69	0x338ce8c8	6.561601e-08
70	0x34180a20	1.4159787e-07
71	0x380213f3	3.1012994e-05
72	0x3806c045	3.2127155e-05
73	0x36500e61	3.1002785e-06
74	0x383c257b	4.48576e-05
75	0x37a69b26	1.9860989e-05
76	0xb5283c86	-6.267295e-07
77	0x2edd2b8e	1.0057653e-10
78	0x2eb4e603	8.2263106e-11
79	0x17ab4115	1.1067045e-24
80	0x00000004	6e-45
81	0x00000000	0.0
82	0x00000000	0.0
83	0x00000000	0.0
84	0x00000000	0.0
85	0x00000000	0.0
86	0x80000004	-6e-45
87	0x125eb6cb	7.027616e-28
88	0x97c66cc1	-1.2822903e-24
89	0x319b3a7f	4.517744e-09
90	0x33bdfb5b	8.8467196e-08
91	0x362a8996	2.541206e-06
92	0x372c1ce5	1.0258726e-05
93	0x373fd493	1.1433981e-05
94	0x3723363d	9.728185e-06
95	0xb6c33076	-5.8170945e-06
96	0xb89f7fc7	-7.605511e-05
97	0xb91e7890	-0.00015112967
98	0x393b2568	0.00017847645
99	0x39982d2b	0.00029025352
100	0x36b15c32	5.285744e-06
101	0xb74d8ccf	-1.2251737e-05
102	0x382366c5	3.895794e-05
103	0xb72ef5f1	-1.0428471e-05
104	0xb808dfa0	-3.2633194e-05
105	0xb767df3b	-1.3820648e-05
106	0xb60a7e3c	-2.063708e-06
107	0xb36112fd	-5.2404165e-08
108	0xb32f6cd9	-4.084436e-08
109	0x1a99e23d	6.3644825e-23
110	0x80000004	-6e-45
111	0x00000000	0.0
112	0x00000000	0.0
113	0x989ee9bb	-4.107805e-24
114	0x9df7f156	-6.562989e-21
115	0x2a9fba3e	2.8373305e-13
116	0xb40f660f	-1.3355042e-07
117	0xb683ae48	-3.9243932e-06
118	0xb6844767	-3.942219e-06
119	0x34d36c0c	3.9380427e-07
120	0x379324c2	1.7540882e-05
121	0x37b4331c	2.1481472e-05
122	0x37852501	1.5872067e-05
123	0xb964d451	-0.00021822868
124	0xb993c2e3	-0.00028183227
125	0xb9cabac7	-0.00038667602
126	0xb950aa6f	-0.00019899917
127	0x3818e739	3.6454967e-05
128	0x381fb644	3.8078302e-05
129	0x38b5f2ab	8.675953e-05
130	0x39021ed2	0.00012409248
131	0xb7798ef1	-1.4874838e-05
132	0x386fa96e	5.7139834e-05
133	0xb7d70d4d	-2.5636191e-05
134	0xb8d5a960	-0.0001018818
135	0xb8298eab	-4.042561e-05
136	0xb5af95b3	-1.3082084e-06
137	0xb58317e2	-9.767211e-07
138	0x9f3410cc	-3.8130377e-20
139	0x00000004	6e-45
140	0x00000000	0.0
141	0x00000000	0.0
142	0x9d254b8d	-2.1876627e-21
143	0xad00cdfc	-7.321695e-12
144	0xb312e9dd	-3.420597e-08
145	0xb6554ea3	-3.1785246e-06
146	0xb78f9b08	-1.711912e-05
147	0xb708b3d5	-8.148102e-06
148	0xb8ab71e9	-8.175133e-05
149	0xb916af8d	-0.00014370513
150	0xb85c2530	-5.248672e-05
151	0x377efdc1	1.51986615e-05
152	0x38d339e3	0.00010072046
153	0x3aa2216b	0.0012369578
154	0x3afb0b84	0.0019153212
155	0x3a97acd2	0.001157189
156	0x3a38d022	0.0007050057
157	0x39c7307c	0.00037992361
158	0x39791a53	0.00023756297
159	0x394d3756	0.00019570938
160	0x39687e3a	0.00022172267
161	0x395283c1	0.00020076243
162	0xb894a377	-7.087638e-05
163	0xb8092e57	-3.2706503e-05
164	0x370b920a	8.319048e-06
165	0xb610a534	-2.1553833e-06
166	0xb405fb67	-1.247805e-07
167	0x9367cb43	-2.9256515e-27
168	0x00000000	0.0
169	0x91a5c084	-2.6151057e-28
170	0xafaa66ae	-3.0995778e-10
171	0xb4345ea9	-1.6798244e-07
172	0xb58a2c7b	-1.0294747e-06
173	0xb7031b0d	-7.814507e-06
174	0xb9063251	-0.0001279798
175	0xb9268b1f	-0.0001588282
176	0xb92a2c6d	-0.00016229013
177	0x3925b71a	0.00015803837
178	0x39820bb3	0.0002480425
179	0x3a83a90a	0.0010044884
180	0x3acd7db4	0.0015677721
181	0x3b140ab3	0.0022589385
182	0x3b0bf892	0.0021357876
183	0x3af942dd	0.0019017119
184	0x3ad6dd9a	0.0016392947
185	0x3ab40fb2	0.0013737588
186	0x3a2d73e6	0.00066166965
187	0x38f38aeb	0.000116130184
188	0x394818c6	0.00019082715
189	0x38cf9a61	9.8992845e-05
190	0xb8a5fb6e	-7.9146455e-05
191	0xb83972e5	-4.421444e-05
192	0x370a900d	8.25898e-06
193	0xb543adb8	-7.2895955e-07
194	0xb4b13382	-3.3006296e-07
195	0x9d960b5a	-3.9716407e-21
196	0x0689de2c	5.1860125e-35
197	0x24ca4163	8.7714305e-17
198	0x32ef358a	2.7847609e-08
199	0x3542cf49	7.257227e-07
200	0xb7d46692	-2.5320132e-05
201	0xb94fc49e	-0.00019814304
202	0xb9965bbc	-0.00028678577
203	0xb98bfe68	-0.00026701693
204	0x37513040	1.2468605e-05
205	0x3970eb41	0.00022975823
206	0x3a05de8d	0.000510671
207	0x3aafe85f	0.0013420692
208	0x3b004b80	0.0019576252
209	0x3b16b1ff	0.0022994278
210	0x3b1b6cf2	0.002371606
211	0x3b071529	0.0020611978
212	0x3ae9d98c	0.0017841323
213	0x3afc71fb	0.0019260043
214	0x3b09a677	0.0021003762
215	0x3a01135d	0.0004923845
216	0x39be478e	0.00036292936
217	0x38aa83d8	8.1307895e-05
218	0x37b24754	2.1252468e-05
219	0x369d5d02	4.689792e-06
220	0xb791bfc6	-1.7374648e-05
221	0xb7ee6d43	-2.842269e-05
222	0xb4991dee	-2.8520247e-07
223	0x9ce3bc1f	-1.5070228e-21
224	0x078c116f	2.1075105e-34
225	0x2639516f	6.429513e-16
226	0x335951d9	5.059869e-08
227	0x3594c4ff	1.1084193e-06
228	0xb7ad9db4	-2.0696643e-05
229	0xb917c97a	-0.00014475538
230	0xb96b31f2	-0.00022429953
231	0xb95ec480	-0.00021244772
232	0x39451b23	0.00018797493
233	0x393a42ea	0.0001776327
234	0x3abdeceb	0.0014490163
235	0x3adafedd	0.0016708035
236	0x3b0422cc	0.0020162342
237	0x3acddd23	0.0015706163
238	0x3af33a13	0.0018556736
239	0x3b1a01a6	0.0023499518
240	0x3afdeb2c	0.0019372455
241	0x3b099399	0.0020992516
242	0x3b09c18a	0.00210199
243	0x39cdc627	0.00039248282
244	0x39d26884	0.00040132191
245	0x39b510a4	0.00034535408
246	0x39b207d4	0.00033956638
247	0x392efa93	0.0001668728
248	0xb81a8c43	-3.684709e-05
249	0xb821265d	-3.842112e-05
250	0xb51a518b	-5.748813e-07
251	0x000247f2	2.0948e-40
252	0xa29fe0b0	-4.3334934e-18
253	0x2541b3c4	1.6800989e-16
254	0x32697a4d	1.3590193e-08
255	0x357d9dec	9.447965e-07

exp_avg_sq f4 [32, 784]
0	0x00000000	0.0
1	0x00000000	0.0
2	0x00000000	0.0
3	0x00000000	0.0
4	0x00000000	0.0
5	0x00000000	0.0
6	0x00000000	0.0
7	0x00000000	0.0
8	0x00000000	0.0
9	0x00000000	0.0
10	0x00000000	0.0
11	0x00000000	0.0
12	0x2485ef5f	5.8085066e-17
13	0x25a08a77	2.7849403e-16
14	0x00000000	0.0
15	0x00000000	0.0
16	0x00000000	0.0
17	0x00000000	0.0
18	0x00000000	0.0
19	0x00000000	0.0
20	0x00000000	0.0
21	0x00000000	0.0
22	0x00000000	0.0
23	0x00000000	0.0
24	0x00000000	0.0
25	0x00000000	0.0
26	0x00000000	0.0
27	0x00000000	0.0
28	0x00000000	0.0
29	0x00000000	0.0
30	0x00000000	0.0
31	0x00000000	0.0
32	0x00000000	0.0
33	0x2208d91b	1.8546372e-18
34	0x27187ad7	2.116083e-15
35	0x285c4f25	1.2229615e-14
36	0x284bd2c7	1.1314469e-14
37	0x269d5a08	1.0918466e-15
38	0x265e54ca	7.7136633e-16
39	0x25a25acc	2.8164047e-16
40	0x28449dc2	1.0914394e-14
41	0x281285f6	8.133676e-15
42	0x2a8d7da9	2.5133826e-13
43	0x2af8501d	4.410924e-13
44	0x28e7bf0b	2.5729004e-14
45	0x27bdd1c8	5.2685483e-15
46	0x2613dad0	5.1297416e-16
47	0x23666a9d	1.2490901e-17
48	0x238ae69b	1.5059655e-17
49	0x2002ffc1	1.109605e-19
50	0x00000000	0.0
51	0x00000000	0.0
52	0x00000000	0.0
53	0x00000000	0.0
54	0x00000000	0.0
55	0x00000000	0.0
56	0x00000000	0.0
57	0x00000000	0.0
58	0x00000000	0.0
59	0x28bcabfb	2.0946778e-14
60	0x2745c9b7	2.7448592e-15
61	0x25796f61	2.1635044e-16
62	0x27b5bdae	5.0443243e-15
63	0x2ac89b94	3.563509e-13
64	0x2e3ce09d	4.2945748e-11
65	0x3051ae4a	7.6281437e-10
66	0x30898489	1.0005731e-09
67	0x2fde3a42	4.042296e-10
68	0x3237bc82	1.0694864e-08
69	0x331c7291	3.6425778e-08
70	0x341d6931	1.4660033e-07
71	0x35064b91	5.0028854e-07
72	0x34b82332	3.429828e-07
73	0x333d9bb3	4.41466e-08
74	0x339b020a	7.218121e-08
75	0x33ac9206	8.035936e-08
76	0x339aa2d6	7.2008035e-08
77	0x33119ea9	3.3904744e-08
78	0x323234c4	1.0372961e-08
79	0x318491e6	3.8582924e-09
80	0x248d3b54	6.124951e-17
81	0x00000000	0.0
82	0x00000000	0.0
83	0x00000000	0.0
84	0x00000000	0.0
85	0x00000000	0.0
86	0x2e803fc6	5.8320945e-11
87	0x2ca0d0b9	4.5706464e-12
88	0x2e1a17b3	3.5036595e-11
89	0x2f316aed	1.6136044e-10
90	0x31121c80	2.1261997e-09
91	0x330ea440	3.3211336e-08
92	0x3472d985	2.261714e-07
93	0x3470b699	2.241817e-07
94	0x3582112f	9.690756e-07
95	0x35bcf9fe	1.4079849e-06
96	0x36249207	2.4522903e-06
97	0x369b3cfa	4.6264586e-06
98	0x36b16280	5.286478e-06
99	0x368463d8	3.94553e-06
100	0x368129f1	3.849382e-06
101	0x36505918	3.1046275e-06
102	0x35ce007a	1.5348335e-06
103	0x358b231d	1.0366526e-06
104	0x338ce9de	6.561798e-08
105	0x3304a5d3	3.088446e-08
106	0x333915c8	4.309348e-08
107	0x32174e00	8.807092e-09
108	0x3018e09b	5.561646e-10
109	0x2e62b7bc	5.154964e-11
110	0x225c9c19	2.9898197e-18
111	0x00000000	0.0
112	0x00000000	0.0
113	0x1e19937b	8.130251e-21
114	0x303cb5ae	6.8652184e-10
115	0x2f8b3004	2.531807e-10
116	0x31b3fd14	5.2383573e-09
117	0x3438e487	1.7219473e-07
118	0x35136f7e	5.492401e-07
119	0x35cc3e97	1.52174e-06
120	0x362ebb00	2.6036869e-06
121	0x368a55ce	4.1227095e-06
122	0x36b054a1	5.255061e-06
123	0x370f73bc	8.550411e-06
124	0x37851e2a	1.5868882e-05
125	0x37a7ba7b	1.9994788e-05
126	0x37d452b1	2.5310876e-05
127	0x37cb7c25	2.4257295e-05
128	0x37ab3499	2.0409281e-05
129	0x3789c3f0	1.6422913e-05
130	0x372a22dc	1.0140906e-05
131	0x36c03395	5.728051e-06
132	0x3689da15	4.1083063e-06
133	0x365d39f5	3.2965302e-06
134	0x3620affa	2.394429e-06
135	0x346bf613	2.1975602e-07
136	0x336cfbe7	5.5177136e-08
137	0x33200bd4	3.726366e-08
138	0x3215427d	8.688059e-09
139	0x2199916f	1.0406179e-18
140	0x00000000	0.0
141	0x00000000	0.0
142	0x2d6add03	1.33504345e-11
143	0x31689e71	3.3850507e-09
144	0x33075cdd	3.1516596e-08
145	0x34becaf2	3.553792e-07
146	0x35fff5b1	1.9070486e-06
147	0x369cc84d	4.6724804e-06
148	0x36f91caa	7.424115e-06
149	0x374db1ff	1.2260395e-05
150	0x37976ca6	1.8051196e-05
151	0x37f261a5	2.8894117e-05
152	0x382ae542	4.074467e-05
153	0x384cbcdc	4.881328e-05
154	0x3867fcae	5.5310018e-05
155	0x385e4ab9	5.2998515e-05
156	0x38516ab0	4.9928844e-05
157	0x381993f6	3.6615842e-05
158	0x37c7e2bd	2.3828232e-05
159	0x37802c56	1.5279435e-05
160	0x372e3e40	1.0385702e-05
161	0x36cc3588	6.0859056e-06
162	0x366a2d72	3.489517e-06
163	0x35715e46	8.991668e-07
164	0x34cf2aac	3.8587802e-07
165	0x33e3cf74	1.0608247e-07
166	0x3328a1f9	3.926286e-08
167	0x23300a1f	9.543122e-18
168	0x00000000	0.0
169	0x26babd75	1.2957695e-15
170	0x2dde7e73	2.5294633e-11
171	0x33bbbf2f	8.742642e-08
172	0x34a99c20	3.15923e-07
173	0x35d143c2	1.5591434e-06
174	0x369f1bdf	4.741814e-06
175	0x370aa4f7	8.26385e-06
176	0x37516be4	1.2482491e-05
177	0x37c384e3	2.3307692e-05
178	0x380f7fa7	3.4212742e-05
179	0x38395410	4.4185726e-05
180	0x385ee55e	5.314254e-05
181	0x387767ee	5.898618e-05
182	0x38827a18	6.221625e-05
183	0x3882eb7a	6.242744e-05
184	0x387c1676	6.01024e-05
185	0x3848b4b8	4.7852023e-05
186	0x38005d1e	3.06043e-05
187	0x37b17731	2.1155547e-05
188	0x375c8983	1.3145039e-05
189	0x36fa1872	7.4534264e-06
190	0x3624cc8e	2.455697e-06
191	0x35bb7a74	1.3968224e-06
192	0x35349a89	6.7280104e-07
193	0x34872d91	2.5178863e-07
194	0x309f5d7c	1.1595342e-09
195	0x2c784a42	3.528414e-12
196	0x1d19dd9d	2.0363953e-21
197	0x2cc7129b	5.657986e-12
198	0x2ea8278c	7.6467804e-11
199	0x343e6e42	1.773524e-07
200	0x354c0d92	7.601567e-07
201	0x364a6878	3.0161154e-06
202	0x36d6b3eb	6.398642e-06
203	0x373e9be7	1.1361181e-05
204	0x37a0ebdb	1.9183315e-05
205	0x37ec8a23	2.8197717e-05
206	0x381f4f2f	3.79823e-05
207	0x38458a9f	4.709756e-05
208	0x385c8652	5.2577183e-05
209	0x3864bbcd	5.453434e-05
210	0x3872e8c8	5.791409e-05
211	0x38868ae2	6.415487e-05
212	0x3884e288	6.336445e-05
213	0x3852851b	5.0191866e-05
214	0x381e24c1	3.7704365e-05
215	0x37eb5003	2.8051441e-05
216	0x3797e123	1.810544e-05
217	0x372a96e0	1.0167918e-05
218	0x367f07c7	3.8002488e-06
219	0x35c4f1a5	1.4673466e-06
220	0x34b9d5ee	3.461459e-07
221	0x33e350cc	1.0585208e-07
222	0x32103fa3	8.3963725e-09
223	0x2d3e153e	1.0804966e-11
224	0x1f1ed0b8	3.363045e-20
225	0x2ff18ea8	4.3939008e-10
226	0x30ed4046	1.7262287e-09
227	0x342df755	1.620186e-07
228	0x357be1a6	9.383315e-07
229	0x367b83f9	3.7478733e-06
230	0x36de2932	6.6209113e-06
231	0x37657248	1.3676072e-05
232	0x37ad962a	2.0693133e-05
233	0x37fd4a9b	3.0194691e-05
234	0x38269d28	3.9723847e-05
235	0x382e1ecd	4.151352e-05
236	0x383ef357	4.5526158e-05
237	0x3851ceeb	5.002219e-05
238	0x38623b64	5.393791e-05
239	0x38740755	5.818096e-05
240	0x38714cfe	5.7530582e-05
241	0x384b3b66	4.845429e-05
242	0x3822967e	3.8763967e-05
243	0x37df5a9c	2.6625865e-05
244	0x37a49dc9	1.9623798e-05
245	0x3735544c	1.0808068e-05
246	0x36a6e4e9	4.973834e-06
247	0x35d272ca	1.5679627e-06
248	0x350a6661	5.1557987e-07
249	0x346125a9	2.0968459e-07
250	0x31a9f7ee	4.9467337e-09
251	0x27c8a991	5.5694995e-15
252	0x2985a0d2	5.9342844e-14
253	0x2cd0b921	5.932269e-12
254	0x32c95dea	2.3442187e-08
255	0x342f4516	1.6323278e-07

exp_avg f4 [32]
0	0x3af61106	0.0018773384
1	0x39d44fb9	0.0004049519
2	0x3b346cb1	0.0027530605
3	0xbaa77ca0	-0.001277823
4	0xbab3d8b6	-0.0013721201
5	0x3b197009	0.0023412725
6	0xbab130c8	-0.0013518566
7	0x3b92a51c	0.004475249
8	0x3c076c4f	0.008265569
9	0xbaadd3c3	-0.0013261962
10	0x00000004	6e-45
11	0xbac63059	-0.001512061
12	0xbb2bacd5	-0.0026195545
13	0xb9e383ec	-0.00043395103
14	0x3b6e39d7	0.0036350393
15	0x39262e95	0.00015848347
16	0x3a7e3a17	0.0009697987
17	0xba2fa20c	-0.0006699867
18	0xbb0cc616	-0.0021480373
19	0x3bcd0f20	0.0062579066
20	0x3a815d77	0.0009869774
21	0x3b0559b8	0.0020347666
22	0xbbbf7817	-0.0058431732
23	0xbae951c6	-0.001780086
24	0xbb5f202d	-0.0034046278
25	0x00000004	6e-45
26	0xbb3501d2	-0.0027619493
27	0xb7ada9cc	-2.0702275e-05
28	0xbafc8bee	-0.0019267777
29	0x3bb71aaf	0.0055878977
30	0xba8bd3e6	-0.0010668009
31	0xbacc5fcf	-0.0015592518

exp_avg_sq f4 [32]
0	0x3903cee2	0.00012570203
1	0x391f2d98	0.00015180407
2	0x38b08e6c	8.418862e-05
3	0x38b0ffa0	8.439948e-05
4	0x38b9f170	8.866459e-05
5	0x38219118	3.852052e-05
6	0x38e6fee9	0.00011014735
7	0x388f7080	6.839726e-05
8	0x390740d4	0.00012898754
9	0x38cc31f1	9.73678e-05
10	0x26213bfa	5.593938e-16
11	0x38caad21	9.6643584e-05
12	0x38854f3a	6.356691e-05
13	0x38347104	4.30206e-05
14	0x38284300	4.011672e-05
15	0x390fe722	0.00013723646
16	0x38900343	6.8670626e-05
17	0x38c8547e	9.552481e-05
18	0x3914573e	0.0001414688
19	0x3896dc3f	7.1935814e-05
20	0x390f3473	0.00013657082
21	0x38e599d6	0.00010948225
22	0x3916d840	0.00014385674
23	0x3907bb29	0.00012944326
24	0x389758a5	7.2167524e-05
25	0x277c0c28	3.4978615e-15
26	0x3904e950	0.00012675417
27	0x38398f49	4.4240882e-05
28	0x39342ad5	0.00017182094
29	0x395d3629	0.00021096379
30	0x38810bae	6.153375e-05
31	0x388c9aea	6.704575e-05

exp_avg f4 [16, 32]
0	0xbc4b8dfd	-0.012423989
1	0xbb460d8a	-0.0030220472
2	0xbc46a03b	-0.012123163
3	0xbb956432	-0.0045590634
4	0xbaffa1a3	-0.0019503128
5	0xbc74b083	-0.014934662
6	0xbb03f08b	-0.0020132388
7	0xbcd1537d	-0.025552506
8	0x3a9a70b7	0.0011782859
9	0xbc308a02	-0.010775091
10	0x00000004	6e-45
11	0xbadc4463	-0.0016805049
12	0xbc83247e	-0.016008612
13	0xbc4994c7	-0.012303538
14	0xbc782a20	-0.015146762
15	0xbb7ecd64	-0.0038879747
16	0xbc836e33	-0.016043758
17	0xbcae7dc0	-0.021300197
18	0x39eee2ca	0.00045563868
19	0xbc1dd7f8	-0.0096340105
20	0xbb08a737	-0.002085162
21	0xbc5eeb2c	-0.013605874
22	0xbc0e510f	-0.008686318
23	0xbbae0bfb	-0.005311487
24	0xbbfc002a	-0.0076904492
25	0x80000004	-6e-45
26	0xbbdb4b0e	-0.006692297
27	0xbc865b00	-0.016400814
28	0xbc97555e	-0.018473323
29	0xbb447049	-0.0029974154
30	0xbc8a79e1	-0.01690382
31	0xbccbff8c	-0.024902128
32	0x3b811a6b	0.003939917
33	0x3b16835b	0.0022966478
34	0x3c67ed7d	0.014155743
35	0x3bb12bf1	0.0054068496
36	0xbb01221e	-0.0019704173
37	0x3bb04e05	0.0053803944
38	0x3a860c00	0.0010226965
39	0x3c92b986	0.01791073
40	0x390fdeb9	0.00013720513
41	0x3bf68a5f	0.0075238193
42	0x00000004	6e-45
43	0x3b83660e	0.0040099686
44	0x3c3537a6	0.011060631
45	0x3b942cb4	0.0045219306
46	0x3b7c8efe	0.0038537378
47	0x3b17eb5d	0.002318106
48	0x3c4bafa0	0.012432009
49	0x3c199ced	0.009375793
50	0xbb78a286	-0.0037938668
51	0xba168f2b	-0.00057433796
52	0x3a737173	0.00092866196
53	0x3c61228f	0.01374115
54	0xb9b67649	-0.00034801874
55	0x3b0e712c	0.0021734936
56	0x3c2dc8c9	0.010606953
57	0x00000000	0.0
58	0xbb7395fe	-0.003716826
59	0x3bb605f6	0.00555491
60	0x3c37115b	0.011173571
61	0x3aee1f7d	0.0018167343
62	0x3c32a10c	0.010902654
63	0x3c81a9eb	0.015828094
64	0x3ae80914	0.0017702901
65	0x3b3bc3c0	0.0028650612
66	0x3af81319	0.001892659
67	0x3bc3f649	0.005980287
68	0xba84cd4c	-0.0010131984
69	0x3b784637	0.0037883648
70	0xba254e26	-0.00063058955
71	0x3bf891b5	0.007585729
72	0x3b616069	0.003438974
73	0x3b71d154	0.003689845
74	0x80000004	-6e-45
75	0x3bc42f0d	0.005987054
76	0x3c0e0dd1	0.008670286
77	0x3a75e9eb	0.0009380865
78	0x3b4c85ce	0.0031207683
79	0x3b2984f1	0.0025866593
80	0x3bed7ef8	0.007247802
81	0x3baf478a	0.0053491043
82	0x3b2daa2e	0.002649914
83	0x3b90fae1	0.0044244383
84	0x3b392b2e	0.0028254497
85	0x3af54468	0.0018712403
86	0xba7e37db	-0.0009697654
87	0x3ba97d53	0.0051724105
88	0x3bca7149	0.0061780554
89	0x00000000	0.0
90	0xbac82834	-0.001527077
91	0x3b639e7d	0.0034731918
92	0x3bf4fcd6	0.0074764295
93	0xbab95dde	-0.0014142354
94	0x3bb7d312	0.0056098783
95	0x3c20eced	0.0098221125
96	0x3bf35a3d	0.0074265287
97	0x3aed1777	0.0018088658
98	0x3c23b7e2	0.009992572
99	0x3bb25898	0.00544269
100	0x3ba787fd	0.0051126466
101	0x3c19fb6a	0.009398321
102	0x3b864df1	0.004098647
103	0x3c9f5357	0.01944892
104	0x3b49996c	0.0030761613
105	0x3bfb05d0	0.007660605
106	0x00000004	6e-45
107	0x39f0083e	0.00045782508
108	0x3c83d16e	0.016091075
109	0x3c4b5f09	0.012412795
110	0x3c307236	0.0107694175
111	0x3b161d77	0.0022905746
112	0x3c7d3d1e	0.015456466
113	0x3c80455c	0.015658073
114	0x38cf14de	9.874416e-05
115	0x3c02442a	0.007950822
116	0x3aa59359	0.0012632414
117	0x3bd18529	0.0063940478
118	0x3c4066e7	0.011743284
119	0x3c24b766	0.010053491
120	0x3b4f639c	0.0031645065
121	0x00000000	0.0
122	0x3bf2ca54	0.0074093733
123	0x3c465ae6	0.012106633
124	0x3c6f6461	0.014611335
125	0x3b3627a4	0.0027794624
126	0x3c839f87	0.01606728
127	0x3c72f433	0.014828729
128	0xbb52dc37	-0.0032174715
129	0xba7d47cc	-0.00096618827
130	0xbb8127d0	-0.0039415136
131	0xbaf9b679	-0.0019051573
132	0x399663f9	0.00028684715
133	0xbb8518aa	-0.004061778
134	0xbb14ef86	-0.0022725775
135	0xbbaa5947	-0.005198631
136	0xba1b52ba	-0.0005925108
137	0xbb55c9f3	-0.0032621592
138	0x00000004	6e-45
139	0xb9106ffd	-0.00013774629
140	0xbb980c01	-0.004640103
141	0xbbda5728	-0.006663222
142	0xbb90c462	-0.004417942
143	0xb9e72116	-0.00044084404
144	0xbb33f0ef	-0.002745684
145	0xbbe18980	-0.0068828464
146	0x3a5ab70b	0.00083433156
147	0xbb5e007c	-0.00338748
148	0xb981519d	-0.00024665604
149	0xbb8bcd2b	-0.0042664013
150	0xb9346180	-0.0001720246
151	0xbafdc7e4	-0.001936194
152	0xbaf6f0b7	-0.0018840049
153	0x00000004	6e-45
154	0xbb13bf88	-0.0022544581
155	0xbb9b854f	-0.004746116
156	0xbb7e2161	-0.003877722
157	0xbad406eb	-0.0016176378
158	0xbb94a331	-0.0045360555
159	0xbbc52e16	-0.0060174568
160	0x3c67f854	0.014158327
161	0xbac039c3	-0.0014665652
162	0x3c2a93c9	0.010411211
163	0xbbe7eac4	-0.007077547
164	0x3bc2c09d	0.0059433714
165	0x3c413764	0.011792991
166	0x3b95122e	0.0045492863
167	0x3caf2456	0.021379631
168	0xbbe65666	-0.0070293425
169	0x3c161240	0.009159625
170	0x80000004	-6e-45
171	0xbbe30afa	-0.0069287987
172	0x3b96b295	0.0045989254
173	0x3c690ade	0.014223782
174	0x3c883ffe	0.016632076
175	0xbad68a33	-0.0016368091
176	0x3c2cbbe1	0.010542841
177	0x3cbed2cb	0.023293873
178	0xbaebb7f1	-0.0017983896
179	0x3ba47a48	0.00501946
180	0xba0d4845	-0.0005389492
181	0x3c84ad56	0.016195934
182	0x3c61a106	0.013771301
183	0x3af8efb7	0.0018992339
184	0xba94f156	-0.0011363428
185	0x80000004	-6e-45
186	0x3c170f3e	0.009219943
187	0x3c041027	0.008060492
188	0x3c7fd248	0.0156141
189	0x3bf09ae5	0.0073426836
190	0x3c307e69	0.010772326
191	0x3c5fe5f0	0.013665661
192	0xbb88f03e	-0.0041790297
193	0xb988faae	-0.00026126712
194	0xbbcef5eb	-0.006315937
195	0xbb0738c0	-0.002063319
196	0xbb98c90b	-0.004662638
197	0xbbe89cde	-0.007098778
198	0xbab28d50	-0.0013622437
199	0xbc5138f7	-0.012769929
200	0xbb0c3aa4	-0.0021397257
201	0xbb379a2d	-0.002801548
202	0x00000004	6e-45
203	0x3811fb09	3.480449e-05
204	0xbbe39491	-0.0069452007
205	0xbbf61551	-0.0075098653
206	0xbbea9ea1	-0.0071600233
207	0x3a3b14c6	0.00071365794
208	0xbc2cf7d2	-0.010557132
209	0xbc08f7c8	-0.008359857
210	0xba5f08e7	-0.00085081015
211	0xbb71e7bf	-0.0036911813
212	0xba192d3c	-0.0005843227
213	0xbc0d46cc	-0.008622836
214	0xbbe608d2	-0.0070200944
215	0xbb9f5b33	-0.0048631667
216	0xb8fa74a5	-0.00011942656
217	0x00000000	0.0
218	0xbb88c02c	-0.0041732993
219	0xbbebc3ed	-0.007194987
220	0xbc0554ad	-0.008137864
221	0xbb906e6a	-0.0044076936
222	0xbc1aef49	-0.009456464
223	0xbc2299a2	-0.009924324
224	0x3a935142	0.0011239427
225	0xbb23d543	-0.002499894
226	0xbb9106fd	-0.004425882
227	0xbc0ee20d	-0.008720887
228	0x3b0827be	0.0020775641
229	0xbbdc1329	-0.0067161513
230	0x3a39b2a5	0.000708381
231	0xbbaef356	-0.0053390665
232	0xbbb774c4	-0.0055986363
233	0xbb183079	-0.0023222251
234	0x80000004	-6e-45
235	0xbbaeb5da	-0.005331737
236	0xbc1033d8	-0.008801423
237	0xbb971b0b	-0.004611378
238	0xbb86f688	-0.0041187443
239	0xbba0fe9c	-0.0049131643
240	0xbad5ec6f	-0.0016321073
241	0x3abb6d9a	0.0014299632
242	0xbaa59bec	-0.0012634969
243	0xbc28ae37	-0.010295442
244	0xb684f221	-3.962094e-06
245	0x3b04e62a	0.002027879
246	0x3aa4c1b2	0.0012569933
247	0xba1d2dbb	-0.0005995889
248	0xbc1561af	-0.009117528
249	0x80000004	-6e-45
250	0xbad84529	-0.0016500104
251	0xbc583e66	-0.013198471
252	0xbab7523c	-0.00139863
253	0x3a3286ae	0.000681023
254	0xbbc08d1a	-0.0058761956
255	0xbc166b45	-0.0091808485

exp_avg_sq f4 [16, 32]
0	0x39d0de6e	0.00039838575
1	0x38a23897	7.735303e-05
2	0x3ab4f389	0.0013805489
3	0x3b041093	0.002015148
4	0x3b0066d3	0.0019592538
5	0x3ac38088	0.0014915625
6	0x3b18987b	0.0023284245
7	0x3b0b9b16	0.0021302155
8	0x39af3a73	0.0003342215
9	0x3a9cb437	0.0011955564
10	0x2309c3c1	7.468237e-18
11	0x3a148c59	0.00056666654
12	0x3b49c548	0.0030787755
13	0x3b4a6e9a	0.0030888678
14	0x3ae5a906	0.0017521686
15	0x39511a3b	0.00019941565
16	0x3af5d868	0.0018756511
17	0x3a9545f3	0.0011388644
18	0x39c12cc1	0.00036845173
19	0x3a451c7c	0.0007519198
20	0x38f88b76	0.00011851538
21	0x3a8ae745	0.0010597488
22	0x3af05b42	0.0018337744
23	0x3ae6c034	0.0017604888
24	0x3a96b72b	0.001149868
25	0x24bb5f01	8.1259265e-17
26	0x3a6598d4	0.000875843
27	0x3b22c87a	0.0024838732
28	0x3a7df50b	0.00096876983
29	0x39626492	0.00021590505
30	0x3b2751b0	0.0025530867
31	0x3b023659	0.001986882
32	0x395f3bfd	0.00021289285
33	0x392ae437	0.0001629748
34	0x3a58827a	0.00082591886
35	0x3aba3cd2	0.00142088
36	0x3a66fb35	0.00088112365
37	0x3a802f6a	0.0009779755
38	0x39f02ef2	0.00045811344
39	0x3ab6b973	0.0013940766
40	0x3a06b986	0.00051393395
41	0x39b14258	0.000338095
42	0x1e815e77	1.3697476e-20
43	0x3a08f8c3	0.00052250567
44	0x3b06b6b0	0.0020555668
45	0x3af7eb0c	0.0018914654
46	0x3a62f328	0.0008657449
47	0x395333dd	0.00020141849
48	0x3ac97c99	0.0015372216
49	0x3a2d432c	0.00066094357
50	0x39bd7453	0.00036135557
51	0x3a804df1	0.0009788853
52	0x395f5af5	0.00021300821
53	0x3a745586	0.00093206053
54	0x39be1dda	0.00036261865
55	0x3a1ca5ad	0.00059756153
56	0x3a00a7b9	0.0004907805
57	0x00000000	0.0
58	0x39c37f1b	0.00037288
59	0x3ace01c7	0.0015717082
60	0x3a2ace16	0.00065156945
61	0x39cf5bc1	0.0003955048
62	0x3aa6f67f	0.0012738256
63	0x3ae209ca	0.0017245349
64	0x391c0531	0.00014879253
65	0x3925cfd3	0.00015813047
66	0x3a28a49b	0.00064332195
67	0x3a6390c9	0.00086809375
68	0x3a0904d5	0.0005226855
69	0x3a259dba	0.00063177536
70	0x39ab44e7	0.00032666998
71	0x3a6c3093	0.00090099237
72	0x398d5c33	0.0002696231
73	0x398c310c	0.00026739424
74	0x20a8ccab	2.8595745e-19
75	0x399103de	0.00027659436
76	0x3abb7b3f	0.0014303698
77	0x3ab382f7	0.0013695647
78	0x3a00b12e	0.00049092143
79	0x398bc3ca	0.0002665802
80	0x3a7da424	0.0009675643
81	0x39c43b21	0.00037428088
82	0x394ee739	0.00019731828
83	0x3a2a08e3	0.00064863096
84	0x38f42463	0.00011641604
85	0x3a28ebe2	0.00064438407
86	0x399eb32a	0.00030269596
87	0x3a013a0d	0.000492961
88	0x39a59231	0.00031580174
89	0x00000000	0.0
90	0x398fc09d	0.00027418594
91	0x3a9534f5	0.001138358
92	0x39ab8e13	0.00032721515
93	0x3965fcfe	0.00021933389
94	0x3a55344b	0.00081330974
95	0x3a6d0a27	0.00090423453
96	0x39943608	0.00028269016
97	0x393aaed1	0.00017803466
98	0x3a711c44	0.00091976323
99	0x3ab883ad	0.0014077328
100	0x3ab3f107	0.0013728448
101	0x3a80713c	0.0009799371
102	0x3ac349a5	0.0014899267
103	0x3acef869	0.0015790585
104	0x39ad779b	0.00033086244
105	0x3a400bbd	0.0007325968
106	0x210900d9	4.6418527e-19
107	0x39fa5571	0.00047747375
108	0x3afd861e	0.0019342338
109	0x3b0f6574	0.002188054
110	0x3a9ae86c	0.0011818535
111	0x3906ed14	0.00012867554
112	0x3ac6e9a8	0.0015175836
113	0x3a34053c	0.0006867235
114	0x39db996f	0.00041885252
115	0x3a5f441e	0.0008516925
116	0x38ca7163	9.6532305e-05
117	0x3a319f85	0.00067757844
118	0x3ab8111a	0.0014043183
119	0x3ad9693e	0.0016587151
120	0x3a6ca35d	0.00090270286
121	0x00000000	0.0
122	0x3a127274	0.0005586513
123	0x3afe9c01	0.0019425155
124	0x3a301a77	0.0006717811
125	0x3911281b	0.00013843218
126	0x3af7088e	0.0018847154
127	0x3ac2681e	0.0014832055
128	0x3924f40b	0.00015731172
129	0x38e54749	0.00010932849
130	0x3a1d8dad	0.0006010186
131	0x3a9c3346	0.0011917136
132	0x3a5167b3	0.00079881697
133	0x3a5525fc	0.0008130965
134	0x39d3b8e7	0.0004038282
135	0x3a7ce8c9	0.0009647725
136	0x39fde2b3	0.00048424824
137	0x391e4afb	0.00015095987
138	0x2113d2aa	5.008435e-19
139	0x3979a0e2	0.00023806424
140	0x3aca8912	0.0015452227
141	0x3b026d2a	0.0019901493
142	0x3a44f2b9	0.0007512975
143	0x38dfd590	0.00010673248
144	0x3a634af6	0.0008670533
145	0x39c1d04e	0.00036967028
146	0x3994db94	0.00028392358
147	0x3a5d1e6c	0.0008435014
148	0x391b6e76	0.00014823102
149	0x3a0d704e	0.0005395458
150	0x39d244e5	0.00040105652
151	0x39f35806	0.00046414154
152	0x39541f1e	0.00020229488
153	0x227527cc	3.322476e-18
154	0x39b75849	0.00034970258
155	0x3ac36fe8	0.001491067
156	0x39b76540	0.00034979917
157	0x39ad041d	0.00033000196
158	0x3a8ede16	0.0010899927
159	0x3a7f4064	0.0009737073
160	0x39f58581	0.0004682951
161	0x3903a212	0.0001255351
162	0x3a80c678	0.0009824773
163	0x3aaf1293	0.0013356976
164	0x3a824643	0.0009939153
165	0x3a996299	0.0011702358
166	0x3a6f512e	0.0009129223
167	0x3afc2955	0.0019238392
168	0x39d58683	0.00040726745
169	0x3a51f0ba	0.00080085883
170	0x21d7d025	1.4624062e-18
171	0x3a11f57c	0.0005567891
172	0x3b1bcb45	0.002377228
173	0x3b00dd98	0.001966333
174	0x3a8aa2c8	0.0010577077
175	0x393457bf	0.00017198826
176	0x3af09a88	0.0018356601
177	0x3a958ea7	0.0011410312
178	0x399582cb	0.00028516943
179	0x3a41c73a	0.0007392053
180	0x38f7e445	0.00011820396
181	0x3a78870b	0.0009480572
182	0x3a2c8581	0.0006581173
183	0x3aa4cdfc	0.0012573595
184	0x3a2d2188	0.0006604423
185	0x24e549c8	9.943791e-17
186	0x39ce8523	0.00039390576
187	0x3af2fb54	0.0018538036
188	0x3a7f0471	0.000972814
189	0x39946748	0.0002830571
190	0x3ae15fb4	0.001719466
191	0x3b0fe370	0.0021955632
192	0x391103ed	0.0001382974
193	0x38e3e7a4	0.0001086735
194	0x3a0e4466	0.0005427062
195	0x3a85635f	0.001017671
196	0x3a4bd378	0.0007775347
197	0x3a3eb484	0.0007274824
198	0x39fc606b	0.00048137023
199	0x3a522172	0.0008015848
200	0x39bd723e	0.00036134006
201	0x39345496	0.00017197648
202	0x1f3002ad	3.7271663e-20
203	0x39622f08	0.0002157056
204	0x3ab15afc	0.0013531144
205	0x3ad8df90	0.0016546119
206	0x3a2b67a3	0.00065385754
207	0x38e0b532	0.000107149026
208	0x3a546b0d	0.000810311
209	0x39bfbfac	0.00036573166
210	0x3982e7f9	0.00024968365
211	0x3a3e080c	0.0007249124
212	0x38dc0b63	0.000104925384
213	0x39e83d0c	0.00044295972
214	0x39c10e10	0.00036822306
215	0x3a0e3dfb	0.0005426106
216	0x397a5d16	0.00023876535
217	0x00000000	0.0
218	0x39abb077	0.00032747138
219	0x3aa4e710	0.0012581069
220	0x39b186cc	0.00033860502
221	0x398cbd09	0.00026843723
222	0x3a88404c	0.0010395139
223	0x3a53f801	0.00080859667
224	0x3987d48b	0.00025907563
225	0x39394830	0.00017669867
226	0x3a4c77ea	0.0007799851
227	0x3a52ac9f	0.0008036587
228	0x3a316787	0.0006767441
229	0x3a68eea9	0.0008885661
230	0x3a04b5ac	0.00050624716
231	0x3ab66d06	0.001391799
232	0x396fa7ac	0.00022855279
233	0x3a18a3dc	0.0005822757
234	0x21c8fe2e	1.3619808e-18
235	0x39c5a929	0.00037700802
236	0x3aca945b	0.001545559
237	0x3aaf3d8e	0.0013369785
238	0x3a50e618	0.0007968857
239	0x39a84f59	0.00032102576
240	0x3acd9c60	0.0015686862
241	0x3a4d1c5e	0.00078243564
242	0x396f6623	0.00022830865
243	0x3a3f971b	0.0007308588
244	0x39078b84	0.00012926577
245	0x3a76e337	0.0009418013
246	0x3a52a23f	0.0008035041
247	0x3a2d08b5	0.0006600724
248	0x39ec1431	0.00045028472
249	0x2520b985	1.3940644e-16
250	0x39cfd1af	0.00039638343
251	0x3aa9d347	0.0012956642
252	0x39eb9b07	0.00044938197
253	0x3921c34c	0.0001542691
254	0x3a5728d5	0.00082076836
255	0x3aafcaf9	0.0013411931

exp_avg f4 [16]
0	0xbb62b322	-0.0034591635
1	0x3ac3525b	0.0014901863
2	0x3a95e2b1	0.0011435357
3	0x3b610352	0.0034334254
4	0xba321c8d	-0.00067944155
5	0x3b4774d0	0.0030434616
6	0xbb1b6069	-0.0023708588
7	0xba1651bc	-0.0005734225
8	0xbb843a9a	-0.004035306
9	0xbb1441d4	-0.0022622244
10	0x3b90003e	0.00439456
11	0x390944eb	0.00013091012
12	0x3904b245	0.00012654912
13	0x3a54662f	0.0008102385
14	0xba78ca54	-0.00094905985
15	0x3bd63ad8	0.0065377764

exp_avg_sq f4 [16]
0	0x38e776cc	0.00011037066
1	0x388f4b28	6.83277e-05
2	0x38423738	4.630463e-05
3	0x38adb028	8.2820945e-05
4	0x384a5c9e	4.824681e-05
5	0x38b9b2c6	8.8547866e-05
6	0x3841c932	4.6202164e-05
7	0x388214e5	6.202775e-05
8	0x388d7b8a	6.746415e-05
9	0x389826d1	7.255155e-05
10	0x38ba6892	8.888649e-05
11	0x38584df4	5.1571013e-05
12	0x3875ad85	5.8574155e-05
13	0x3875f623	5.8641785e-05
14	0x3874a0fd	5.8324065e-05
15	0x389f14e0	7.585599e-05
